hand-gesture-recognition-mediapipe-main/model/keypoint_classifier/keypoint_classifier.tflite (tflite, 6660 bytes, 6 tensors)

sequential_1/dense_5/BiasAdd/ReadVariableOp f4 [6]
0	0xbe2de593	-0.16982107
1	0xbf81fa64	-1.0154538
2	0x3f34bfbd	0.7060507
3	0xbe7ce3bb	-0.24696247
4	0x3ee633f3	0.4496151
5	0x3f02f6ad	0.5115765

sequential_1/dense_4/BiasAdd/ReadVariableOp f4 [10]
0	0xbe18b6e7	-0.14913522
1	0x3eddc5cb	0.43314967
2	0x3e5731c1	0.21015073
3	0x3ecbfdfd	0.39842215
4	0x3f869407	1.0513924
5	0xbe4578da	-0.19284382
6	0xbc137ac7	-0.00900144
7	0x3eb34f83	0.350216
8	0x3e2a036e	0.16602871
9	0xbdf4d7ab	-0.11955198

sequential_1/dense_3/BiasAdd/ReadVariableOp f4 [20]
0	0xbf23f0bb	-0.640392
1	0x3d1447c9	0.036201272
2	0xbf62ea15	-0.8863843
3	0xbeec75d6	-0.46183652
4	0xbed5eb09	-0.4178088
5	0xbefbbdc4	-0.49168217
6	0x3f0b9c7e	0.54535663
7	0xbf363412	-0.71173203
8	0xbe652a55	-0.2237943
9	0xbf5ce136	-0.86281145
10	0xbeec20a7	-0.46118662
11	0xbe89a998	-0.26887202
12	0xbec7947c	-0.38980472
13	0xbf0bfa3d	-0.5467871
14	0xbef5c886	-0.4800455
15	0xbf2de40b	-0.6792609
16	0xbede8b62	-0.43465716
17	0xbe1caa5a	-0.15299359
18	0xbed3255e	-0.41239446
19	0xbf27d858	-0.6556449

sequential_1/dense_3/MatMul f4 [20, 42]
0	0xbc9da630	-0.019244283
1	0x3e86729a	0.2625931
2	0x3d9614dd	0.07328198
3	0x3e137328	0.14399397
4	0x3c99c189	0.018769043
5	0xbd669307	-0.05629256
6	0xbc226042	-0.009910645
7	0xbd2cb241	-0.042162184
8	0xbc6b230b	-0.014351617
9	0xbebff853	-0.37494144
10	0xbf1743d7	-0.5908789
11	0xbd3c44ab	-0.045963924
12	0xbda010bf	-0.07815694
13	0xbd8596d2	-0.06522907
14	0x3e249bac	0.16075009
15	0x3d56c1ef	0.052431043
16	0x3e3956fd	0.1809959
17	0x3dcd3ff5	0.100219645
18	0xbf3115db	-0.69173974
19	0xbdec9721	-0.11552263
20	0xbbaadc50	-0.0052142516
21	0xbd917033	-0.071014784
22	0x3e4a8b5a	0.19779721
23	0x3db58c35	0.08864633
24	0x3e3e53f3	0.18586712
25	0x3dc2e8fc	0.095170945
26	0xbf48b484	-0.78400445
27	0xbe3780c5	-0.17920215
28	0xbd007cab	-0.031368893
29	0xbe284da9	-0.16435875
30	0x3e8507b0	0.25982428
31	0x3dce7f81	0.10082913
32	0x3e67cbe9	0.2263638
33	0x3e1003e2	0.14063981
34	0xbf44e8f9	-0.7691799
35	0xbf1be66d	-0.60898477
36	0xbd5eaf34	-0.054366305
37	0xbe83fb15	-0.25777498
38	0x3ddb0ac9	0.106954165
39	0x3d8fcf0a	0.070219114
40	0x3dd8cb80	0.105856895
41	0x3e09de10	0.13463616
42	0xbe31bac9	-0.17356409
43	0x3e5b24a4	0.21400696
44	0x3d891a3d	0.06694458
45	0x3ebfe284	0.37477505
46	0x3d409ea6	0.0470263
47	0x3f032382	0.51226056
48	0x3c81696f	0.015797345
49	0x3ee5a912	0.44855553
50	0x3d67ec1a	0.05662165
51	0x3ebf746c	0.3739351
52	0xbf0f01f8	-0.5586238
53	0xbe3858b0	-0.18002582
54	0xbedb4e83	-0.42833337
55	0xbe05912e	-0.13043663
56	0xbe494d4d	-0.19658394
57	0xbeab7384	-0.3348657
58	0xbe1ca294	-0.15296394
59	0xbf11c906	-0.5694736
60	0xbf0b6357	-0.54448456
61	0xbe6071be	-0.21918389
62	0xbedb1ddd	-0.4279622
63	0x3e3c9ab6	0.18418393
64	0x3e614860	0.22000265
65	0x3e5e95da	0.21736851
66	0x3e98ff28	0.2988217
67	0x3d936025	0.071960725
68	0xbf174eea	-0.5910479
69	0xbc507762	-0.012723776
70	0xbd5a7293	-0.053331923
71	0x3def3899	0.11680717
72	0x3e414763	0.18874888
73	0x3dd0cb00	0.10194969
74	0x3effad32	0.49936825
75	0xbd39b4fd	-0.04533862
76	0xbd991475	-0.07474605
77	0x3d413610	0.0471707
78	0xbcdeea96	-0.027211469
79	0x3e315f8c	0.17321604
80	0x3e13710f	0.14398597
81	0x3e3f2dbd	0.18669792
82	0x3ea17f68	0.31542516
83	0x3e1e1358	0.15437067
84	0x3d686248	0.056734353
85	0x3e466508	0.19374478
86	0xbf03fd20	-0.51558113
87	0xbe2b0601	-0.16701509
88	0xbe6a63af	-0.22889589
89	0xbdfd3a36	-0.123646185
90	0xbe8a9119	-0.27063826
91	0xbe8b6078	-0.27222037
92	0xbefd25a4	-0.4944278
93	0xbe60b1ec	-0.21942872
94	0xbde60919	-0.11232204
95	0x3ca648c6	0.020298373
96	0x3b1a1b37	0.0023514756
97	0x3dabc870	0.0838784
98	0x3e5a2b30	0.21305537
99	0x3e856db4	0.2606026
100	0x3e8b0124	0.27149308
101	0x3eb1697d	0.34650794
102	0xbe7f1c8f	-0.24913238
103	0x3d9f486d	0.07777486
104	0xbd80985e	-0.06279062
105	0xbd4ca341	-0.04996038
106	0xbe2995e8	-0.16561091
107	0xbe8de05d	-0.27710238
108	0xbf17b74a	-0.5926405
109	0xbd5d94f2	-0.054097123
110	0xbe0b707d	-0.1361713
111	0x3c94a326	0.018144201
112	0x3dc07429	0.09397156
113	0xbe9be65d	-0.3044919
114	0xbe91b654	-0.28459418
115	0xbf18a401	-0.5962525
116	0xbedb22a7	-0.42799875
117	0xbf063261	-0.5242062
118	0x3da03faf	0.07824647
119	0x3e1560c3	0.14587693
120	0x3e79f6b3	0.24410515
121	0xbe0d194f	-0.13779186
122	0x3d3bfce4	0.045895472
123	0xbdaed9ef	-0.08537661
124	0xbe1b686d	-0.15176554
125	0x3c4daf2b	0.01255397
126	0x3c5140e0	0.012771815
127	0xbdc03274	-0.09384623
128	0x3cee6578	0.029101118
129	0x3ecdc51c	0.40189445
130	0x3cb06b59	0.021535562
131	0x3e8814f3	0.26578483
132	0x3d800df5	0.06252662
133	0x3dcc99a0	0.09990239
134	0x3e907705	0.28215805
135	0x3e1e73d0	0.15473866
136	0x3a4e941e	0.00078803475
137	0xbdb45e0f	-0.08807003
138	0xbc8f4791	-0.01749018
139	0xbaa169a0	-0.0012314804
140	0xbc935b96	-0.017988008
141	0xbc857191	-0.016289504
142	0x3bc8c695	0.0061271884
143	0xbc88150e	-0.016611602
144	0x3da27366	0.07932167
145	0xbc123e35	-0.008925964
146	0xbd014af2	-0.031565614
147	0x3dabbe11	0.08385862
148	0xbd53644e	-0.05160933
149	0x3d98236b	0.074286304
150	0xbe0e79ea	-0.13913694
151	0x3d8483b7	0.06470435
152	0x3e3826c0	0.17983532
153	0x3cbfeb84	0.023427732
154	0x3c965cac	0.018354736
155	0x3dffbd8e	0.124873266
156	0xbe428952	-0.18997696
157	0xbe23d553	-0.15999345
158	0xbed8b1c8	-0.42323136
159	0xbe8c22da	-0.2737034
160	0x3e913018	0.28357005
161	0x3d96ddc0	0.07366514
162	0x3d63f309	0.0556517
163	0x3d3fdeaa	0.04684321
164	0xbe91292f	-0.28351733
165	0xbe211aec	-0.15732926
166	0xbf166823	-0.5875265
167	0xbf9a7890	-1.2068043
168	0x3d2f9c20	0.0428735
169	0xbce9ed30	-0.028555483
170	0x3b2ab0cc	0.002604532
171	0x3e04caed	0.12968035
172	0xbddaa6ac	-0.106763214
173	0xbda82193	-0.08209529
174	0xbe9e6049	-0.30932835
175	0xbd474129	-0.048646126
176	0xbf23f7c2	-0.64049923
177	0x3a9b466b	0.0011846548
178	0xbb52c4eb	-0.003216083
179	0x3e0754b6	0.13215908
180	0xbd3b0bde	-0.045665614
181	0x3e05b3c3	0.13056855
182	0x3d85917f	0.06521892
183	0x3cb5acc9	0.022177117
184	0x3db666a5	0.08906297
185	0xbde6ecd0	-0.11275637
186	0xbd831e83	-0.06402304
187	0x3e65d27a	0.22443572
188	0xbcf18079	-0.029480206
189	0x3d609237	0.05482694
190	0x3e42bc8d	0.19017239
191	0xbd7e7b88	-0.062129527
192	0x3ea67c75	0.32516828
193	0xbe73d455	-0.23811467
194	0xbe20ef25	-0.15716226
195	0x3e958fa5	0.29211155
196	0xbd88649a	-0.06659813
197	0x3d4fff3c	0.05078052
198	0x3eeaa66f	0.45830104
199	0xbdea2beb	-0.11434158
200	0x3f67d7d2	0.9056369
201	0xbd4ff533	-0.05077095
202	0xbe922055	-0.28540292
203	0x3ea1eccc	0.31625974
204	0xbe20f0b4	-0.15716821
205	0x3dc76813	0.097366475
206	0x3e872f1e	0.26403135
207	0x3ccfc5bf	0.025362847
208	0x3ede60e7	0.43433306
209	0xbe88d78e	-0.26726955
210	0x3e94fd0a	0.29099303
211	0x3e26cf10	0.16289926
212	0xbdce6590	-0.10077965
213	0x3eeda7db	0.46417126
214	0x3d4db9ce	0.050226025
215	0x3e38da11	0.18051936
216	0x3db68354	0.089117676
217	0x3e814398	0.25246882
218	0x3de43a88	0.111439764
219	0x3e38a8f9	0.18033208
220	0xbdb5a51e	-0.08869384
221	0x3ce81629	0.02833088
222	0x3cfa8de0	0.03058523
223	0x3d658d8a	0.056043185
224	0x3dd7a398	0.1052925
225	0x3d9a78c2	0.07542564
226	0x3dd9fc64	0.10643843
227	0x3ddbf017	0.10739153
228	0xbd265775	-0.04061075
229	0xbd05d66a	-0.032675184
230	0xbd17ffc0	-0.037109137
231	0x3d96c622	0.073620096
232	0xbe5238b6	-0.20529446
233	0xbca2bef8	-0.019866452
234	0xbeb98c02	-0.3623963
235	0xbe47209c	-0.19446033
236	0xbd8516bb	-0.06498476
237	0x3d277c1e	0.04088985
238	0x3db587eb	0.08863815
239	0x3c01eded	0.007930261
240	0x3d8fd28d	0.07022581
241	0xbf0ead13	-0.5573284
242	0xbf2678a8	-0.65027857
243	0xbf9b1dbc	-1.2118449
244	0x3d661c99	0.056179617
245	0x3d25ca3b	0.040476065
246	0x3d86ac9e	0.06575893
247	0x3d96fd80	0.0737257
248	0x3dff1287	0.12454706
249	0xbd21872f	-0.03943556
250	0xbeb5f8f3	-0.35541496
251	0xbd3951c6	-0.045244
252	0x3e8b5050	0.2720971
253	0x3e0bf016	0.13665804
254	0x3f18aa78	0.59635115
255	0xbe90b0a2	-0.2825976

sequential_1/dense_4/MatMul f4 [10, 20]
0	0x3f0708e8	0.52747965
1	0x3d2ebdd6	0.04266151
2	0x3f6c4c88	0.9230428
3	0x3f76e494	0.9644253
4	0x3f64bafd	0.8934782
5	0x3f9f886d	1.2463509
6	0x3dec561b	0.11539861
7	0xbde7c619	-0.11317081
8	0x3f0d6f5f	0.55248064
9	0x3ee25043	0.4420186
10	0x3d7301e5	0.05932798
11	0x3f5bc160	0.8584194
12	0x3ef74052	0.4829126
13	0x3e7a5e87	0.24450122
14	0x3f8df3a9	1.1089984
15	0x3eec4921	0.46149543
16	0xbd328ec9	-0.0435932
17	0x3e56dec8	0.20983422
18	0x3f11aa26	0.5690025
19	0x3f53a5d7	0.82674927
20	0xbe827d9a	-0.2548645
21	0xbd6be47d	-0.05759095
22	0x3f2b2d2c	0.668658
23	0x3edda9e1	0.4329367
24	0x3e946140	0.28980446
25	0x3ea195cb	0.31559595
26	0xbc5a924a	-0.013340542
27	0xbea84d2d	-0.3287138
28	0x3f1b9631	0.6077605
29	0x3f488c10	0.7833872
30	0x3d0a895a	0.033822395
31	0x3df0b992	0.11754145
32	0xbc1a8650	-0.009431437
33	0x3d1a46b2	0.037665077
34	0xbcebc036	-0.028778177
35	0x3dbc0632	0.09180869
36	0x3e1efaaf	0.15525316
37	0x3e347ec7	0.17626487
38	0xbe8b1226	-0.27162284
39	0x3f0a5c5c	0.5404718
40	0xbee1936b	-0.44057783
41	0x3ea3df83	0.32006463
42	0x3deb8243	0.11499455
43	0x3de216e2	0.11039521
44	0x3f338d86	0.7013782
45	0x3f2c4592	0.67293656
46	0x3f1bbc51	0.60834223
47	0xbeb583c6	-0.35452098
48	0x3f308f53	0.68968695
49	0xbec4b98b	-0.38422808
50	0xbf0d8aea	-0.5529009
51	0x3da27fa1	0.079344995
52	0x3f603c14	0.8759167
53	0xbe686369	-0.22694172
54	0x3f89cdb8	1.0765905
55	0x3e77a836	0.24185261
56	0x3f0ef175	0.55837184
57	0x3ebffb92	0.3749662
58	0x3f6a83a4	0.9160712
59	0x3e0497ae	0.12948486
60	0x3f3f7f7a	0.7480389
61	0xbd4be4f2	-0.049778886
62	0x3eb8d542	0.36100203
63	0xbf04ea2f	-0.51919836
64	0xbe7c4a61	-0.24637748
65	0xbe017529	-0.1264235
66	0x3e8e63f1	0.27810624
67	0x3f36ec5f	0.71454424
68	0x3e932801	0.28741458
69	0x3eaf6c2d	0.3426222
70	0x3f43995a	0.7640587
71	0xbf0ab9dc	-0.5418985
72	0xbe811f60	-0.2521925
73	0x3e8b6478	0.2722509
74	0xbe808078	-0.25098014
75	0x3ebd95a3	0.37028226
76	0x3f2349c6	0.63784444
77	0x3ebad1f0	0.36488295
78	0xbe8fd14a	-0.28089362
79	0x3f523809	0.8211675
80	0x3f4de266	0.8042358
81	0x3f465092	0.7746669
82	0x3e37add6	0.17937407
83	0xbe92d6f7	-0.2867963
84	0x3e900988	0.28132272
85	0x3e1cad1d	0.15300412
86	0x3f3df7df	0.74206346
87	0xbb8531f0	-0.004064791
88	0x3f1511b1	0.5823012
89	0xbc52060b	-0.012818824
90	0x3f58592e	0.8451108
91	0xbe8d1640	-0.27556038
92	0xbd480e71	-0.048841897
93	0x3f8f2dbc	1.1185832
94	0x3e1828c9	0.14859308
95	0x3f70e3a1	0.94097334
96	0x3f2df8a4	0.6795752
97	0x3f4b09cd	0.7931183
98	0xbd6c169d	-0.057638753
99	0x3b78e254	0.00379767
100	0x3e88d694	0.2672621
101	0xbf1f487b	-0.6221997
102	0xbee04c99	-0.4380844
103	0xbe0b66cd	-0.13613434
104	0x3abb8365	0.0014306126
105	0xbe80d5c7	-0.251631
106	0x3ca80548	0.02051033
107	0x3f25a9ef	0.64712423
108	0xbccfd55e	-0.025370296
109	0x3eea9bb4	0.45821917
110	0x3e84a25d	0.25905123
111	0xbe7a8b10	-0.2446711
112	0x3e9bfe2c	0.30467355
113	0xbd912a24	-0.07088116
114	0xbcb79549	-0.022410052
115	0x3f1234f2	0.5711204
116	0x3f2b88fb	0.6700589
117	0x3eb447eb	0.3521112
118	0x3f1bfb58	0.60930395
119	0xbf04bc9a	-0.51850283
120	0xbda8303f	-0.08212327
121	0x3dc07d8e	0.09398948
122	0xbd452e0c	-0.048139617
123	0x3f5e9ee6	0.8696121
124	0xbf437154	-0.763448
125	0x3e0a2848	0.13491929
126	0x3f019764	0.5062163
127	0x3f8bce9b	1.0922426
128	0x3ebf8328	0.37404752
129	0xbf10ae57	-0.5651602
130	0x3e4fdb79	0.20298566
131	0x3f1c052c	0.6094539
132	0x3c3f6b7a	0.011683339
133	0x3d8c428a	0.06848629
134	0x3d2c5d69	0.04208127
135	0x3f34298b	0.7037589
136	0x3e7ef712	0.24898937
137	0x3ef4b070	0.4779086
138	0x3dde92d3	0.10867848
139	0xbec45d73	-0.38352546
140	0x3e9f727f	0.3114204
141	0xbdf11b08	-0.11772734
142	0x3e9b8aa3	0.3037921
143	0xbc167e8f	-0.009185447
144	0xbf0df336	-0.55449235
145	0x3f0a99f3	0.5414116
146	0xbcc0a030	-0.023513883
147	0x3e48214b	0.1954395
148	0xbdb94a8b	-0.09047421
149	0x3edb3e93	0.42821178
150	0xbd96e553	-0.07367959
151	0xbe1383f0	-0.14405799
152	0x3f835759	1.0261031
153	0xbba5e214	-0.005062351
154	0xbe085507	-0.13313685
155	0xbf89c401	-1.0762941
156	0xbfb2d9dc	-1.3972735
157	0x3e536c93	0.20646887
158	0x3f6fec45	0.93719894
159	0xbecd65b8	-0.40116668
160	0x3f33e744	0.7027476
161	0x3eac280e	0.3362431
162	0x3dd5010d	0.10400591
163	0x3e55bc10	0.20872521
164	0xbe459004	-0.19293219
165	0x3eb99d89	0.36253002
166	0x3decbec0	0.1155982
167	0x3ef731bf	0.4828014
168	0xbd475e48	-0.048673898
169	0x3f6fd683	0.93686694
170	0x3f01cb15	0.50700504
171	0x3ebaeef0	0.3651042
172	0xbe071891	-0.13192965
173	0x3f1d737e	0.6150435
174	0xbde155b9	-0.110026784
175	0xbed9ab36	-0.42513436
176	0x3dc10d70	0.09426391
177	0xbee9aee5	-0.45641246
178	0xbd29ea25	-0.041483063
179	0x3ee49f40	0.44652748
180	0xbf37ebc6	-0.71844137
181	0xbd6ebd5e	-0.058286063
182	0x3e4fe26c	0.20301217
183	0xbddb7ab5	-0.10716764
184	0x3da704fe	0.08155249
185	0xbe08f445	-0.13374431
186	0xbd97e680	-0.07417011
187	0xbf788d3d	-0.9709051
188	0x3edecc5b	0.43515286
189	0x3f3be2e1	0.73393065
190	0x3e0db0c7	0.13836966
191	0xbca38c96	-0.019964498
192	0x3d791324	0.06080927
193	0x3f0e595b	0.55605096
194	0x3f0bb612	0.5457469
195	0x3f09ef2e	0.53880584
196	0x3f565692	0.83725846
197	0xbea2cc9b	-0.31796727
198	0xbe8a3548	-0.26993775
199	0xbeaec790	-0.3413663

sequential_1/dense_5/MatMul f4 [6, 10]
0	0x3f354a22	0.7081624
1	0xbe1204d9	-0.14259662
2	0x3f694df5	0.9113458
3	0xbe9e8e76	-0.30968064
4	0x3c3804bb	0.011231597
5	0xbdba62b1	-0.09100855
6	0x3f046680	0.517189
7	0xbf25247a	-0.64508784
8	0xbf6880da	-0.9082161
9	0xbe57467b	-0.2102298
10	0x3ebe4b8e	0.3716702
11	0xbeee91a4	-0.4659549
12	0xbedce6a8	-0.43144727
13	0x3f2bd2a2	0.67118275
14	0x3edcb9bf	0.43110463
15	0x3f552813	0.83264273
16	0x3e8f2c42	0.27963454
17	0xbe3d0ee2	-0.18462709
18	0x3ee9c187	0.45655462
19	0x3edc14ec	0.42984712
20	0xbfad9b44	-1.3563008
21	0xbd3b664a	-0.045751847
22	0xbf017f2a	-0.5058466
23	0x3f4ac21d	0.79202443
24	0x3f8bb3a0	1.0914192
25	0xbf26aa24	-0.65103364
26	0xbf1da43a	-0.61578715
27	0xbf98b92d	-1.1931511
28	0xbe1645d5	-0.14675076
29	0xbf9685c8	-1.1759577
30	0x3f38a051	0.72119623
31	0x3e886827	0.26641962
32	0xbc2042d0	-0.009781554
33	0xbd4eeba2	-0.050517686
34	0xbfeafcf8	-1.835845
35	0xbf42549b	-0.7591035
36	0xbe86e763	-0.2634841
37	0x3ed68186	0.41895694
38	0x3e43c35d	0.19117494
39	0xbed53c81	-0.41647723
40	0xbf596461	-0.8491879
41	0xbfab7f3d	-1.3398205
42	0x3e1e0114	0.15430099
43	0xbf8b4c2b	-1.088262
44	0x3eda6b95	0.42660204
45	0x3e941b86	0.2892725
46	0xbfaa3cf9	-1.3299857
47	0x3f64f5e7	0.8943772
48	0xbf12faf5	-0.5741418
49	0xbf3cdd1b	-0.7377488
50	0xbe3185d5	-0.17336209
51	0xbf088cfa	-0.53340113
52	0xbfa6baa6	-1.302571
53	0xbee22b09	-0.44173458
54	0xbe74232c	-0.23841542
55	0xbef4ce59	-0.4781368
56	0x3fc079d0	1.5037174
57	0xbfb0697e	-1.3782194
58	0x3f859116	1.0434902
59	0xbf749969	-0.95546585
